{
  "nodes": [
    {
      "op": "null", 
      "name": "data0", 
      "inputs": []
    }, 
    {
      "op": "null", 
      "name": "distilbertmodel0_word_embed_embedding0_weight", 
      "attrs": {
        "__dtype__": "0", 
        "__lr_mult__": "1.0", 
        "__shape__": "(30522, 768)", 
        "__storage_type__": "0", 
        "__wd_mult__": "1.0"
      }, 
      "inputs": []
    }, 
    {
      "op": "Embedding", 
      "name": "distilbertmodel0_word_embed_embedding0_fwd", 
      "attrs": {
        "dtype": "float32", 
        "input_dim": "30522", 
        "output_dim": "768", 
        "sparse_grad": "False"
      }, 
      "inputs": [[0, 0, 0], [1, 0, 0]]
    }, 
    {
      "op": "transpose", 
      "name": "distilbertmodel0_transpose0", 
      "attrs": {"axes": "(1, 0, 2)"}, 
      "inputs": [[2, 0, 0]]
    }, 
    {
      "op": "_contrib_arange_like", 
      "name": "bertencoder0_arange_like0", 
      "attrs": {"axis": "0"}, 
      "inputs": [[3, 0, 0]]
    }, 
    {
      "op": "null", 
      "name": "bertencoder0_position_weight", 
      "attrs": {
        "__dtype__": "0", 
        "__lr_mult__": "1.0", 
        "__shape__": "(512, 768)", 
        "__storage_type__": "0", 
        "__wd_mult__": "1.0"
      }, 
      "inputs": []
    }, 
    {
      "op": "Embedding", 
      "name": "bertencoder0_embedding0", 
      "attrs": {
        "input_dim": "512", 
        "output_dim": "768"
      }, 
      "inputs": [[4, 0, 0], [5, 0, 0]]
    }, 
    {
      "op": "expand_dims", 
      "name": "bertencoder0_expand_dims0", 
      "attrs": {"axis": "1"}, 
      "inputs": [[6, 0, 0]]
    }, 
    {
      "op": "broadcast_add", 
      "name": "bertencoder0_broadcast_add1", 
      "inputs": [[3, 0, 0], [7, 0, 0]]
    }, 
    {
      "op": "Dropout", 
      "name": "bertencoder0_dropout0_fwd", 
      "attrs": {
        "axes": "()", 
        "cudnn_off": "False", 
        "p": "0.1"
      }, 
      "inputs": [[8, 0, 0]]
    }, 
    {
      "op": "null", 
      "name": "bertencoder0_layernorm0_gamma", 
      "attrs": {
        "__dtype__": "0", 
        "__init__": "ones", 
        "__lr_mult__": "1.0", 
        "__shape__": "(768,)", 
        "__storage_type__": "0", 
        "__wd_mult__": "1.0"
      }, 
      "inputs": []
    }, 
    {
      "op": "null", 
      "name": "bertencoder0_layernorm0_beta", 
      "attrs": {
        "__dtype__": "0", 
        "__init__": "zeros", 
        "__lr_mult__": "1.0", 
        "__shape__": "(768,)", 
        "__storage_type__": "0", 
        "__wd_mult__": "1.0"
      }, 
      "inputs": []
    }, 
    {
      "op": "LayerNorm", 
      "name": "bertencoder0_layernorm0_layernorm0", 
      "attrs": {
        "axis": "-1", 
        "eps": "1e-05"
      }, 
      "inputs": [[9, 0, 0], [10, 0, 0], [11, 0, 0]]
    }, 
    {
      "op": "null", 
      "name": "bertencoder0_transformer0_dotproductselfattentioncell0_query_weight", 
      "attrs": {
        "__dtype__": "0", 
        "__lr_mult__": "1.0", 
        "__shape__": "(768, 768)", 
        "__storage_type__": "0", 
        "__wd_mult__": "1.0"
      }, 
      "inputs": []
    }, 
    {
      "op": "Reshape", 
      "name": "bertencoder0_transformer0_dotproductselfattentioncell0_reshape0", 
      "attrs": {
        "reverse": "True", 
        "shape": "(12, -1, 0)"
      }, 
      "inputs": [[13, 0, 0]]
    }, 
    {
      "op": "null", 
      "name": "bertencoder0_transformer0_dotproductselfattentioncell0_key_weight", 
      "attrs": {
        "__dtype__": "0", 
        "__lr_mult__": "1.0", 
        "__shape__": "(768, 768)", 
        "__storage_type__": "0", 
        "__wd_mult__": "1.0"
      }, 
      "inputs": []
    }, 
    {
      "op": "Reshape", 
      "name": "bertencoder0_transformer0_dotproductselfattentioncell0_reshape1", 
      "attrs": {
        "reverse": "True", 
        "shape": "(12, -1, 0)"
      }, 
      "inputs": [[15, 0, 0]]
    }, 
    {
      "op": "null", 
      "name": "bertencoder0_transformer0_dotproductselfattentioncell0_value_weight", 
      "attrs": {
        "__dtype__": "0", 
        "__lr_mult__": "1.0", 
        "__shape__": "(768, 768)", 
        "__storage_type__": "0", 
        "__wd_mult__": "1.0"
      }, 
      "inputs": []
    }, 
    {
      "op": "Reshape", 
      "name": "bertencoder0_transformer0_dotproductselfattentioncell0_reshape2", 
      "attrs": {
        "reverse": "True", 
        "shape": "(12, -1, 0)"
      }, 
      "inputs": [[17, 0, 0]]
    }, 
    {
      "op": "Concat", 
      "name": "bertencoder0_transformer0_dotproductselfattentioncell0_concat0", 
      "attrs": {
        "dim": "-2", 
        "num_args": "3"
      }, 
      "inputs": [[14, 0, 0], [16, 0, 0], [18, 0, 0]]
    }, 
    {
      "op": "Reshape", 
      "name": "bertencoder0_transformer0_dotproductselfattentioncell0_reshape3", 
      "attrs": {
        "reverse": "True", 
        "shape": "(-1, 0)"
      }, 
      "inputs": [[19, 0, 0]]
    }, 
    {
      "op": "null", 
      "name": "bertencoder0_transformer0_dotproductselfattentioncell0_query_bias", 
      "attrs": {
        "__dtype__": "0", 
        "__init__": "zeros", 
        "__lr_mult__": "1.0", 
        "__shape__": "(768,)", 
        "__storage_type__": "0", 
        "__wd_mult__": "1.0"
      }, 
      "inputs": []
    }, 
    {
      "op": "Reshape", 
      "name": "bertencoder0_transformer0_dotproductselfattentioncell0_reshape4", 
      "attrs": {
        "reverse": "True", 
        "shape": "(12, -1)"
      }, 
      "inputs": [[21, 0, 0]]
    }, 
    {
      "op": "null", 
      "name": "bertencoder0_transformer0_dotproductselfattentioncell0_key_bias", 
      "attrs": {
        "__dtype__": "0", 
        "__init__": "zeros", 
        "__lr_mult__": "1.0", 
        "__shape__": "(768,)", 
        "__storage_type__": "0", 
        "__wd_mult__": "1.0"
      }, 
      "inputs": []
    }, 
    {
      "op": "Reshape", 
      "name": "bertencoder0_transformer0_dotproductselfattentioncell0_reshape5", 
      "attrs": {
        "reverse": "True", 
        "shape": "(12, -1)"
      }, 
      "inputs": [[23, 0, 0]]
    }, 
    {
      "op": "null", 
      "name": "bertencoder0_transformer0_dotproductselfattentioncell0_value_bias", 
      "attrs": {
        "__dtype__": "0", 
        "__init__": "zeros", 
        "__lr_mult__": "1.0", 
        "__shape__": "(768,)", 
        "__storage_type__": "0", 
        "__wd_mult__": "1.0"
      }, 
      "inputs": []
    }, 
    {
      "op": "Reshape", 
      "name": "bertencoder0_transformer0_dotproductselfattentioncell0_reshape6", 
      "attrs": {
        "reverse": "True", 
        "shape": "(12, -1)"
      }, 
      "inputs": [[25, 0, 0]]
    }, 
    {
      "op": "stack", 
      "name": "bertencoder0_transformer0_dotproductselfattentioncell0_stack0", 
      "attrs": {
        "axis": "1", 
        "num_args": "3"
      }, 
      "inputs": [[22, 0, 0], [24, 0, 0], [26, 0, 0]]
    }, 
    {
      "op": "Reshape", 
      "name": "bertencoder0_transformer0_dotproductselfattentioncell0_reshape7", 
      "attrs": {"shape": "-1"}, 
      "inputs": [[27, 0, 0]]
    }, 
    {
      "op": "FullyConnected", 
      "name": "bertencoder0_transformer0_dotproductselfattentioncell0_fullyconnected0", 
      "attrs": {
        "flatten": "False", 
        "no_bias": "False", 
        "num_hidden": "2304"
      }, 
      "inputs": [[12, 0, 0], [20, 0, 0], [28, 0, 0]]
    }, 
    {
      "op": "_contrib_interleaved_matmul_selfatt_qk", 
      "name": "bertencoder0_transformer0_dotproductselfattentioncell0_interleaved_matmul_selfatt_qk0", 
      "attrs": {"heads": "12"}, 
      "inputs": [[29, 0, 0]]
    }, 
    {
      "op": "null", 
      "name": "data1", 
      "inputs": []
    }, 
    {
      "op": "Reshape", 
      "name": "bertencoder0_reshape0", 
      "attrs": {"shape": "(-1, 1)"}, 
      "inputs": [[31, 0, 0]]
    }, 
    {
      "op": "zeros_like", 
      "name": "bertencoder0_zeros_like0", 
      "inputs": [[4, 0, 0]]
    }, 
    {
      "op": "Reshape", 
      "name": "bertencoder0_reshape1", 
      "attrs": {"shape": "(1, -1)"}, 
      "inputs": [[33, 0, 0]]
    }, 
    {
      "op": "broadcast_add", 
      "name": "bertencoder0_broadcast_add0", 
      "inputs": [[32, 0, 0], [34, 0, 0]]
    }, 
    {
      "op": "Cast", 
      "name": "bertencoder0_cast0", 
      "attrs": {"dtype": "int32"}, 
      "inputs": [[35, 0, 0]]
    }, 
    {
      "op": "expand_dims", 
      "name": "bertencoder0_transformer0_dotproductselfattentioncell0_expand_dims0", 
      "attrs": {"axis": "1"}, 
      "inputs": [[36, 0, 0]]
    }, 
    {
      "op": "broadcast_axis", 
      "name": "bertencoder0_transformer0_dotproductselfattentioncell0_broadcast_axis0", 
      "attrs": {
        "axis": "1", 
        "size": "12"
      }, 
      "inputs": [[37, 0, 0]]
    }, 
    {
      "op": "Reshape", 
      "name": "bertencoder0_transformer0_dotproductselfattentioncell0_reshape8", 
      "attrs": {
        "reverse": "True", 
        "shape": "(-1, 0)"
      }, 
      "inputs": [[38, 0, 0]]
    }, 
    {
      "op": "softmax", 
      "name": "bertencoder0_transformer0_dotproductselfattentioncell0_softmax0", 
      "attrs": {
        "axis": "-1", 
        "use_length": "True"
      }, 
      "inputs": [[30, 0, 0], [39, 0, 0]]
    }, 
    {
      "op": "Dropout", 
      "name": "bertencoder0_transformer0_dotproductselfattentioncell0_dropout0_fwd", 
      "attrs": {
        "axes": "()", 
        "cudnn_off": "False", 
        "p": "0.1"
      }, 
      "inputs": [[40, 0, 0]]
    }, 
    {
      "op": "_contrib_interleaved_matmul_selfatt_valatt", 
      "name": "bertencoder0_transformer0_dotproductselfattentioncell0_interleaved_matmul_selfatt_valatt0", 
      "attrs": {"heads": "12"}, 
      "inputs": [[29, 0, 0], [41, 0, 0]]
    }, 
    {
      "op": "null", 
      "name": "bertencoder0_transformer0_proj_weight", 
      "attrs": {
        "__dtype__": "0", 
        "__lr_mult__": "1.0", 
        "__shape__": "(768, 768)", 
        "__storage_type__": "0", 
        "__wd_mult__": "1.0"
      }, 
      "inputs": []
    }, 
    {
      "op": "null", 
      "name": "bertencoder0_transformer0_proj_bias", 
      "attrs": {
        "__dtype__": "0", 
        "__init__": "zeros", 
        "__lr_mult__": "1.0", 
        "__shape__": "(768,)", 
        "__storage_type__": "0", 
        "__wd_mult__": "1.0"
      }, 
      "inputs": []
    }, 
    {
      "op": "FullyConnected", 
      "name": "bertencoder0_transformer0_proj_fwd", 
      "attrs": {
        "flatten": "False", 
        "no_bias": "False", 
        "num_hidden": "768"
      }, 
      "inputs": [[42, 0, 0], [43, 0, 0], [44, 0, 0]]
    }, 
    {
      "op": "Dropout", 
      "name": "bertencoder0_transformer0_dropout0_fwd", 
      "attrs": {
        "axes": "()", 
        "cudnn_off": "False", 
        "p": "0.1"
      }, 
      "inputs": [[45, 0, 0]]
    }, 
    {
      "op": "elemwise_add", 
      "name": "bertencoder0_transformer0__plus0", 
      "inputs": [[46, 0, 0], [12, 0, 0]]
    }, 
    {
      "op": "null", 
      "name": "bertencoder0_transformer0_layernorm0_gamma", 
      "attrs": {
        "__dtype__": "0", 
        "__init__": "ones", 
        "__lr_mult__": "1.0", 
        "__shape__": "(768,)", 
        "__storage_type__": "0", 
        "__wd_mult__": "1.0"
      }, 
      "inputs": []
    }, 
    {
      "op": "null", 
      "name": "bertencoder0_transformer0_layernorm0_beta", 
      "attrs": {
        "__dtype__": "0", 
        "__init__": "zeros", 
        "__lr_mult__": "1.0", 
        "__shape__": "(768,)", 
        "__storage_type__": "0", 
        "__wd_mult__": "1.0"
      }, 
      "inputs": []
    }, 
    {
      "op": "LayerNorm", 
      "name": "bertencoder0_transformer0_layernorm0_layernorm0", 
      "attrs": {
        "axis": "-1", 
        "eps": "1e-05"
      }, 
      "inputs": [[47, 0, 0], [48, 0, 0], [49, 0, 0]]
    }, 
    {
      "op": "null", 
      "name": "bertencoder0_transformer0_positionwiseffn0_ffn_1_weight", 
      "attrs": {
        "__dtype__": "0", 
        "__lr_mult__": "1.0", 
        "__shape__": "(3072, 768)", 
        "__storage_type__": "0", 
        "__wd_mult__": "1.0"
      }, 
      "inputs": []
    }, 
    {
      "op": "null", 
      "name": "bertencoder0_transformer0_positionwiseffn0_ffn_1_bias", 
      "attrs": {
        "__dtype__": "0", 
        "__init__": "zeros", 
        "__lr_mult__": "1.0", 
        "__shape__": "(3072,)", 
        "__storage_type__": "0", 
        "__wd_mult__": "1.0"
      }, 
      "inputs": []
    }, 
    {
      "op": "FullyConnected", 
      "name": "bertencoder0_transformer0_positionwiseffn0_ffn_1_fwd", 
      "attrs": {
        "flatten": "False", 
        "no_bias": "False", 
        "num_hidden": "3072"
      }, 
      "inputs": [[50, 0, 0], [51, 0, 0], [52, 0, 0]]
    }, 
    {
      "op": "LeakyReLU", 
      "name": "bertencoder0_transformer0_positionwiseffn0_gelu0_leakyrelu0", 
      "attrs": {"act_type": "gelu"}, 
      "inputs": [[53, 0, 0]]
    }, 
    {
      "op": "null", 
      "name": "bertencoder0_transformer0_positionwiseffn0_ffn_2_weight", 
      "attrs": {
        "__dtype__": "0", 
        "__lr_mult__": "1.0", 
        "__shape__": "(768, 3072)", 
        "__storage_type__": "0", 
        "__wd_mult__": "1.0"
      }, 
      "inputs": []
    }, 
    {
      "op": "null", 
      "name": "bertencoder0_transformer0_positionwiseffn0_ffn_2_bias", 
      "attrs": {
        "__dtype__": "0", 
        "__init__": "zeros", 
        "__lr_mult__": "1.0", 
        "__shape__": "(768,)", 
        "__storage_type__": "0", 
        "__wd_mult__": "1.0"
      }, 
      "inputs": []
    }, 
    {
      "op": "FullyConnected", 
      "name": "bertencoder0_transformer0_positionwiseffn0_ffn_2_fwd", 
      "attrs": {
        "flatten": "False", 
        "no_bias": "False", 
        "num_hidden": "768"
      }, 
      "inputs": [[54, 0, 0], [55, 0, 0], [56, 0, 0]]
    }, 
    {
      "op": "Dropout", 
      "name": "bertencoder0_transformer0_positionwiseffn0_dropout0_fwd", 
      "attrs": {
        "axes": "()", 
        "cudnn_off": "False", 
        "p": "0.1"
      }, 
      "inputs": [[57, 0, 0]]
    }, 
    {
      "op": "elemwise_add", 
      "name": "bertencoder0_transformer0_positionwiseffn0__plus0", 
      "inputs": [[58, 0, 0], [50, 0, 0]]
    }, 
    {
      "op": "null", 
      "name": "bertencoder0_transformer0_positionwiseffn0_layernorm0_gamma", 
      "attrs": {
        "__dtype__": "0", 
        "__init__": "ones", 
        "__lr_mult__": "1.0", 
        "__shape__": "(768,)", 
        "__storage_type__": "0", 
        "__wd_mult__": "1.0"
      }, 
      "inputs": []
    }, 
    {
      "op": "null", 
      "name": "bertencoder0_transformer0_positionwiseffn0_layernorm0_beta", 
      "attrs": {
        "__dtype__": "0", 
        "__init__": "zeros", 
        "__lr_mult__": "1.0", 
        "__shape__": "(768,)", 
        "__storage_type__": "0", 
        "__wd_mult__": "1.0"
      }, 
      "inputs": []
    }, 
    {
      "op": "LayerNorm", 
      "name": "bertencoder0_transformer0_positionwiseffn0_layernorm0_layernorm0", 
      "attrs": {
        "axis": "-1", 
        "eps": "1e-05"
      }, 
      "inputs": [[59, 0, 0], [60, 0, 0], [61, 0, 0]]
    }, 
    {
      "op": "null", 
      "name": "bertencoder0_transformer1_dotproductselfattentioncell0_query_weight", 
      "attrs": {
        "__dtype__": "0", 
        "__lr_mult__": "1.0", 
        "__shape__": "(768, 768)", 
        "__storage_type__": "0", 
        "__wd_mult__": "1.0"
      }, 
      "inputs": []
    }, 
    {
      "op": "Reshape", 
      "name": "bertencoder0_transformer1_dotproductselfattentioncell0_reshape0", 
      "attrs": {
        "reverse": "True", 
        "shape": "(12, -1, 0)"
      }, 
      "inputs": [[63, 0, 0]]
    }, 
    {
      "op": "null", 
      "name": "bertencoder0_transformer1_dotproductselfattentioncell0_key_weight", 
      "attrs": {
        "__dtype__": "0", 
        "__lr_mult__": "1.0", 
        "__shape__": "(768, 768)", 
        "__storage_type__": "0", 
        "__wd_mult__": "1.0"
      }, 
      "inputs": []
    }, 
    {
      "op": "Reshape", 
      "name": "bertencoder0_transformer1_dotproductselfattentioncell0_reshape1", 
      "attrs": {
        "reverse": "True", 
        "shape": "(12, -1, 0)"
      }, 
      "inputs": [[65, 0, 0]]
    }, 
    {
      "op": "null", 
      "name": "bertencoder0_transformer1_dotproductselfattentioncell0_value_weight", 
      "attrs": {
        "__dtype__": "0", 
        "__lr_mult__": "1.0", 
        "__shape__": "(768, 768)", 
        "__storage_type__": "0", 
        "__wd_mult__": "1.0"
      }, 
      "inputs": []
    }, 
    {
      "op": "Reshape", 
      "name": "bertencoder0_transformer1_dotproductselfattentioncell0_reshape2", 
      "attrs": {
        "reverse": "True", 
        "shape": "(12, -1, 0)"
      }, 
      "inputs": [[67, 0, 0]]
    }, 
    {
      "op": "Concat", 
      "name": "bertencoder0_transformer1_dotproductselfattentioncell0_concat0", 
      "attrs": {
        "dim": "-2", 
        "num_args": "3"
      }, 
      "inputs": [[64, 0, 0], [66, 0, 0], [68, 0, 0]]
    }, 
    {
      "op": "Reshape", 
      "name": "bertencoder0_transformer1_dotproductselfattentioncell0_reshape3", 
      "attrs": {
        "reverse": "True", 
        "shape": "(-1, 0)"
      }, 
      "inputs": [[69, 0, 0]]
    }, 
    {
      "op": "null", 
      "name": "bertencoder0_transformer1_dotproductselfattentioncell0_query_bias", 
      "attrs": {
        "__dtype__": "0", 
        "__init__": "zeros", 
        "__lr_mult__": "1.0", 
        "__shape__": "(768,)", 
        "__storage_type__": "0", 
        "__wd_mult__": "1.0"
      }, 
      "inputs": []
    }, 
    {
      "op": "Reshape", 
      "name": "bertencoder0_transformer1_dotproductselfattentioncell0_reshape4", 
      "attrs": {
        "reverse": "True", 
        "shape": "(12, -1)"
      }, 
      "inputs": [[71, 0, 0]]
    }, 
    {
      "op": "null", 
      "name": "bertencoder0_transformer1_dotproductselfattentioncell0_key_bias", 
      "attrs": {
        "__dtype__": "0", 
        "__init__": "zeros", 
        "__lr_mult__": "1.0", 
        "__shape__": "(768,)", 
        "__storage_type__": "0", 
        "__wd_mult__": "1.0"
      }, 
      "inputs": []
    }, 
    {
      "op": "Reshape", 
      "name": "bertencoder0_transformer1_dotproductselfattentioncell0_reshape5", 
      "attrs": {
        "reverse": "True", 
        "shape": "(12, -1)"
      }, 
      "inputs": [[73, 0, 0]]
    }, 
    {
      "op": "null", 
      "name": "bertencoder0_transformer1_dotproductselfattentioncell0_value_bias", 
      "attrs": {
        "__dtype__": "0", 
        "__init__": "zeros", 
        "__lr_mult__": "1.0", 
        "__shape__": "(768,)", 
        "__storage_type__": "0", 
        "__wd_mult__": "1.0"
      }, 
      "inputs": []
    }, 
    {
      "op": "Reshape", 
      "name": "bertencoder0_transformer1_dotproductselfattentioncell0_reshape6", 
      "attrs": {
        "reverse": "True", 
        "shape": "(12, -1)"
      }, 
      "inputs": [[75, 0, 0]]
    }, 
    {
      "op": "stack", 
      "name": "bertencoder0_transformer1_dotproductselfattentioncell0_stack0", 
      "attrs": {
        "axis": "1", 
        "num_args": "3"
      }, 
      "inputs": [[72, 0, 0], [74, 0, 0], [76, 0, 0]]
    }, 
    {
      "op": "Reshape", 
      "name": "bertencoder0_transformer1_dotproductselfattentioncell0_reshape7", 
      "attrs": {"shape": "-1"}, 
      "inputs": [[77, 0, 0]]
    }, 
    {
      "op": "FullyConnected", 
      "name": "bertencoder0_transformer1_dotproductselfattentioncell0_fullyconnected0", 
      "attrs": {
        "flatten": "False", 
        "no_bias": "False", 
        "num_hidden": "2304"
      }, 
      "inputs": [[62, 0, 0], [70, 0, 0], [78, 0, 0]]
    }, 
    {
      "op": "_contrib_interleaved_matmul_selfatt_qk", 
      "name": "bertencoder0_transformer1_dotproductselfattentioncell0_interleaved_matmul_selfatt_qk0", 
      "attrs": {"heads": "12"}, 
      "inputs": [[79, 0, 0]]
    }, 
    {
      "op": "expand_dims", 
      "name": "bertencoder0_transformer1_dotproductselfattentioncell0_expand_dims0", 
      "attrs": {"axis": "1"}, 
      "inputs": [[36, 0, 0]]
    }, 
    {
      "op": "broadcast_axis", 
      "name": "bertencoder0_transformer1_dotproductselfattentioncell0_broadcast_axis0", 
      "attrs": {
        "axis": "1", 
        "size": "12"
      }, 
      "inputs": [[81, 0, 0]]
    }, 
    {
      "op": "Reshape", 
      "name": "bertencoder0_transformer1_dotproductselfattentioncell0_reshape8", 
      "attrs": {
        "reverse": "True", 
        "shape": "(-1, 0)"
      }, 
      "inputs": [[82, 0, 0]]
    }, 
    {
      "op": "softmax", 
      "name": "bertencoder0_transformer1_dotproductselfattentioncell0_softmax0", 
      "attrs": {
        "axis": "-1", 
        "use_length": "True"
      }, 
      "inputs": [[80, 0, 0], [83, 0, 0]]
    }, 
    {
      "op": "Dropout", 
      "name": "bertencoder0_transformer1_dotproductselfattentioncell0_dropout0_fwd", 
      "attrs": {
        "axes": "()", 
        "cudnn_off": "False", 
        "p": "0.1"
      }, 
      "inputs": [[84, 0, 0]]
    }, 
    {
      "op": "_contrib_interleaved_matmul_selfatt_valatt", 
      "name": "bertencoder0_transformer1_dotproductselfattentioncell0_interleaved_matmul_selfatt_valatt0", 
      "attrs": {"heads": "12"}, 
      "inputs": [[79, 0, 0], [85, 0, 0]]
    }, 
    {
      "op": "null", 
      "name": "bertencoder0_transformer1_proj_weight", 
      "attrs": {
        "__dtype__": "0", 
        "__lr_mult__": "1.0", 
        "__shape__": "(768, 768)", 
        "__storage_type__": "0", 
        "__wd_mult__": "1.0"
      }, 
      "inputs": []
    }, 
    {
      "op": "null", 
      "name": "bertencoder0_transformer1_proj_bias", 
      "attrs": {
        "__dtype__": "0", 
        "__init__": "zeros", 
        "__lr_mult__": "1.0", 
        "__shape__": "(768,)", 
        "__storage_type__": "0", 
        "__wd_mult__": "1.0"
      }, 
      "inputs": []
    }, 
    {
      "op": "FullyConnected", 
      "name": "bertencoder0_transformer1_proj_fwd", 
      "attrs": {
        "flatten": "False", 
        "no_bias": "False", 
        "num_hidden": "768"
      }, 
      "inputs": [[86, 0, 0], [87, 0, 0], [88, 0, 0]]
    }, 
    {
      "op": "Dropout", 
      "name": "bertencoder0_transformer1_dropout0_fwd", 
      "attrs": {
        "axes": "()", 
        "cudnn_off": "False", 
        "p": "0.1"
      }, 
      "inputs": [[89, 0, 0]]
    }, 
    {
      "op": "elemwise_add", 
      "name": "bertencoder0_transformer1__plus0", 
      "inputs": [[90, 0, 0], [62, 0, 0]]
    }, 
    {
      "op": "null", 
      "name": "bertencoder0_transformer1_layernorm0_gamma", 
      "attrs": {
        "__dtype__": "0", 
        "__init__": "ones", 
        "__lr_mult__": "1.0", 
        "__shape__": "(768,)", 
        "__storage_type__": "0", 
        "__wd_mult__": "1.0"
      }, 
      "inputs": []
    }, 
    {
      "op": "null", 
      "name": "bertencoder0_transformer1_layernorm0_beta", 
      "attrs": {
        "__dtype__": "0", 
        "__init__": "zeros", 
        "__lr_mult__": "1.0", 
        "__shape__": "(768,)", 
        "__storage_type__": "0", 
        "__wd_mult__": "1.0"
      }, 
      "inputs": []
    }, 
    {
      "op": "LayerNorm", 
      "name": "bertencoder0_transformer1_layernorm0_layernorm0", 
      "attrs": {
        "axis": "-1", 
        "eps": "1e-05"
      }, 
      "inputs": [[91, 0, 0], [92, 0, 0], [93, 0, 0]]
    }, 
    {
      "op": "null", 
      "name": "bertencoder0_transformer1_positionwiseffn0_ffn_1_weight", 
      "attrs": {
        "__dtype__": "0", 
        "__lr_mult__": "1.0", 
        "__shape__": "(3072, 768)", 
        "__storage_type__": "0", 
        "__wd_mult__": "1.0"
      }, 
      "inputs": []
    }, 
    {
      "op": "null", 
      "name": "bertencoder0_transformer1_positionwiseffn0_ffn_1_bias", 
      "attrs": {
        "__dtype__": "0", 
        "__init__": "zeros", 
        "__lr_mult__": "1.0", 
        "__shape__": "(3072,)", 
        "__storage_type__": "0", 
        "__wd_mult__": "1.0"
      }, 
      "inputs": []
    }, 
    {
      "op": "FullyConnected", 
      "name": "bertencoder0_transformer1_positionwiseffn0_ffn_1_fwd", 
      "attrs": {
        "flatten": "False", 
        "no_bias": "False", 
        "num_hidden": "3072"
      }, 
      "inputs": [[94, 0, 0], [95, 0, 0], [96, 0, 0]]
    }, 
    {
      "op": "LeakyReLU", 
      "name": "bertencoder0_transformer1_positionwiseffn0_gelu0_leakyrelu0", 
      "attrs": {"act_type": "gelu"}, 
      "inputs": [[97, 0, 0]]
    }, 
    {
      "op": "null", 
      "name": "bertencoder0_transformer1_positionwiseffn0_ffn_2_weight", 
      "attrs": {
        "__dtype__": "0", 
        "__lr_mult__": "1.0", 
        "__shape__": "(768, 3072)", 
        "__storage_type__": "0", 
        "__wd_mult__": "1.0"
      }, 
      "inputs": []
    }, 
    {
      "op": "null", 
      "name": "bertencoder0_transformer1_positionwiseffn0_ffn_2_bias", 
      "attrs": {
        "__dtype__": "0", 
        "__init__": "zeros", 
        "__lr_mult__": "1.0", 
        "__shape__": "(768,)", 
        "__storage_type__": "0", 
        "__wd_mult__": "1.0"
      }, 
      "inputs": []
    }, 
    {
      "op": "FullyConnected", 
      "name": "bertencoder0_transformer1_positionwiseffn0_ffn_2_fwd", 
      "attrs": {
        "flatten": "False", 
        "no_bias": "False", 
        "num_hidden": "768"
      }, 
      "inputs": [[98, 0, 0], [99, 0, 0], [100, 0, 0]]
    }, 
    {
      "op": "Dropout", 
      "name": "bertencoder0_transformer1_positionwiseffn0_dropout0_fwd", 
      "attrs": {
        "axes": "()", 
        "cudnn_off": "False", 
        "p": "0.1"
      }, 
      "inputs": [[101, 0, 0]]
    }, 
    {
      "op": "elemwise_add", 
      "name": "bertencoder0_transformer1_positionwiseffn0__plus0", 
      "inputs": [[102, 0, 0], [94, 0, 0]]
    }, 
    {
      "op": "null", 
      "name": "bertencoder0_transformer1_positionwiseffn0_layernorm0_gamma", 
      "attrs": {
        "__dtype__": "0", 
        "__init__": "ones", 
        "__lr_mult__": "1.0", 
        "__shape__": "(768,)", 
        "__storage_type__": "0", 
        "__wd_mult__": "1.0"
      }, 
      "inputs": []
    }, 
    {
      "op": "null", 
      "name": "bertencoder0_transformer1_positionwiseffn0_layernorm0_beta", 
      "attrs": {
        "__dtype__": "0", 
        "__init__": "zeros", 
        "__lr_mult__": "1.0", 
        "__shape__": "(768,)", 
        "__storage_type__": "0", 
        "__wd_mult__": "1.0"
      }, 
      "inputs": []
    }, 
    {
      "op": "LayerNorm", 
      "name": "bertencoder0_transformer1_positionwiseffn0_layernorm0_layernorm0", 
      "attrs": {
        "axis": "-1", 
        "eps": "1e-05"
      }, 
      "inputs": [[103, 0, 0], [104, 0, 0], [105, 0, 0]]
    }, 
    {
      "op": "null", 
      "name": "bertencoder0_transformer2_dotproductselfattentioncell0_query_weight", 
      "attrs": {
        "__dtype__": "0", 
        "__lr_mult__": "1.0", 
        "__shape__": "(768, 768)", 
        "__storage_type__": "0", 
        "__wd_mult__": "1.0"
      }, 
      "inputs": []
    }, 
    {
      "op": "Reshape", 
      "name": "bertencoder0_transformer2_dotproductselfattentioncell0_reshape0", 
      "attrs": {
        "reverse": "True", 
        "shape": "(12, -1, 0)"
      }, 
      "inputs": [[107, 0, 0]]
    }, 
    {
      "op": "null", 
      "name": "bertencoder0_transformer2_dotproductselfattentioncell0_key_weight", 
      "attrs": {
        "__dtype__": "0", 
        "__lr_mult__": "1.0", 
        "__shape__": "(768, 768)", 
        "__storage_type__": "0", 
        "__wd_mult__": "1.0"
      }, 
      "inputs": []
    }, 
    {
      "op": "Reshape", 
      "name": "bertencoder0_transformer2_dotproductselfattentioncell0_reshape1", 
      "attrs": {
        "reverse": "True", 
        "shape": "(12, -1, 0)"
      }, 
      "inputs": [[109, 0, 0]]
    }, 
    {
      "op": "null", 
      "name": "bertencoder0_transformer2_dotproductselfattentioncell0_value_weight", 
      "attrs": {
        "__dtype__": "0", 
        "__lr_mult__": "1.0", 
        "__shape__": "(768, 768)", 
        "__storage_type__": "0", 
        "__wd_mult__": "1.0"
      }, 
      "inputs": []
    }, 
    {
      "op": "Reshape", 
      "name": "bertencoder0_transformer2_dotproductselfattentioncell0_reshape2", 
      "attrs": {
        "reverse": "True", 
        "shape": "(12, -1, 0)"
      }, 
      "inputs": [[111, 0, 0]]
    }, 
    {
      "op": "Concat", 
      "name": "bertencoder0_transformer2_dotproductselfattentioncell0_concat0", 
      "attrs": {
        "dim": "-2", 
        "num_args": "3"
      }, 
      "inputs": [[108, 0, 0], [110, 0, 0], [112, 0, 0]]
    }, 
    {
      "op": "Reshape", 
      "name": "bertencoder0_transformer2_dotproductselfattentioncell0_reshape3", 
      "attrs": {
        "reverse": "True", 
        "shape": "(-1, 0)"
      }, 
      "inputs": [[113, 0, 0]]
    }, 
    {
      "op": "null", 
      "name": "bertencoder0_transformer2_dotproductselfattentioncell0_query_bias", 
      "attrs": {
        "__dtype__": "0", 
        "__init__": "zeros", 
        "__lr_mult__": "1.0", 
        "__shape__": "(768,)", 
        "__storage_type__": "0", 
        "__wd_mult__": "1.0"
      }, 
      "inputs": []
    }, 
    {
      "op": "Reshape", 
      "name": "bertencoder0_transformer2_dotproductselfattentioncell0_reshape4", 
      "attrs": {
        "reverse": "True", 
        "shape": "(12, -1)"
      }, 
      "inputs": [[115, 0, 0]]
    }, 
    {
      "op": "null", 
      "name": "bertencoder0_transformer2_dotproductselfattentioncell0_key_bias", 
      "attrs": {
        "__dtype__": "0", 
        "__init__": "zeros", 
        "__lr_mult__": "1.0", 
        "__shape__": "(768,)", 
        "__storage_type__": "0", 
        "__wd_mult__": "1.0"
      }, 
      "inputs": []
    }, 
    {
      "op": "Reshape", 
      "name": "bertencoder0_transformer2_dotproductselfattentioncell0_reshape5", 
      "attrs": {
        "reverse": "True", 
        "shape": "(12, -1)"
      }, 
      "inputs": [[117, 0, 0]]
    }, 
    {
      "op": "null", 
      "name": "bertencoder0_transformer2_dotproductselfattentioncell0_value_bias", 
      "attrs": {
        "__dtype__": "0", 
        "__init__": "zeros", 
        "__lr_mult__": "1.0", 
        "__shape__": "(768,)", 
        "__storage_type__": "0", 
        "__wd_mult__": "1.0"
      }, 
      "inputs": []
    }, 
    {
      "op": "Reshape", 
      "name": "bertencoder0_transformer2_dotproductselfattentioncell0_reshape6", 
      "attrs": {
        "reverse": "True", 
        "shape": "(12, -1)"
      }, 
      "inputs": [[119, 0, 0]]
    }, 
    {
      "op": "stack", 
      "name": "bertencoder0_transformer2_dotproductselfattentioncell0_stack0", 
      "attrs": {
        "axis": "1", 
        "num_args": "3"
      }, 
      "inputs": [[116, 0, 0], [118, 0, 0], [120, 0, 0]]
    }, 
    {
      "op": "Reshape", 
      "name": "bertencoder0_transformer2_dotproductselfattentioncell0_reshape7", 
      "attrs": {"shape": "-1"}, 
      "inputs": [[121, 0, 0]]
    }, 
    {
      "op": "FullyConnected", 
      "name": "bertencoder0_transformer2_dotproductselfattentioncell0_fullyconnected0", 
      "attrs": {
        "flatten": "False", 
        "no_bias": "False", 
        "num_hidden": "2304"
      }, 
      "inputs": [[106, 0, 0], [114, 0, 0], [122, 0, 0]]
    }, 
    {
      "op": "_contrib_interleaved_matmul_selfatt_qk", 
      "name": "bertencoder0_transformer2_dotproductselfattentioncell0_interleaved_matmul_selfatt_qk0", 
      "attrs": {"heads": "12"}, 
      "inputs": [[123, 0, 0]]
    }, 
    {
      "op": "expand_dims", 
      "name": "bertencoder0_transformer2_dotproductselfattentioncell0_expand_dims0", 
      "attrs": {"axis": "1"}, 
      "inputs": [[36, 0, 0]]
    }, 
    {
      "op": "broadcast_axis", 
      "name": "bertencoder0_transformer2_dotproductselfattentioncell0_broadcast_axis0", 
      "attrs": {
        "axis": "1", 
        "size": "12"
      }, 
      "inputs": [[125, 0, 0]]
    }, 
    {
      "op": "Reshape", 
      "name": "bertencoder0_transformer2_dotproductselfattentioncell0_reshape8", 
      "attrs": {
        "reverse": "True", 
        "shape": "(-1, 0)"
      }, 
      "inputs": [[126, 0, 0]]
    }, 
    {
      "op": "softmax", 
      "name": "bertencoder0_transformer2_dotproductselfattentioncell0_softmax0", 
      "attrs": {
        "axis": "-1", 
        "use_length": "True"
      }, 
      "inputs": [[124, 0, 0], [127, 0, 0]]
    }, 
    {
      "op": "Dropout", 
      "name": "bertencoder0_transformer2_dotproductselfattentioncell0_dropout0_fwd", 
      "attrs": {
        "axes": "()", 
        "cudnn_off": "False", 
        "p": "0.1"
      }, 
      "inputs": [[128, 0, 0]]
    }, 
    {
      "op": "_contrib_interleaved_matmul_selfatt_valatt", 
      "name": "bertencoder0_transformer2_dotproductselfattentioncell0_interleaved_matmul_selfatt_valatt0", 
      "attrs": {"heads": "12"}, 
      "inputs": [[123, 0, 0], [129, 0, 0]]
    }, 
    {
      "op": "null", 
      "name": "bertencoder0_transformer2_proj_weight", 
      "attrs": {
        "__dtype__": "0", 
        "__lr_mult__": "1.0", 
        "__shape__": "(768, 768)", 
        "__storage_type__": "0", 
        "__wd_mult__": "1.0"
      }, 
      "inputs": []
    }, 
    {
      "op": "null", 
      "name": "bertencoder0_transformer2_proj_bias", 
      "attrs": {
        "__dtype__": "0", 
        "__init__": "zeros", 
        "__lr_mult__": "1.0", 
        "__shape__": "(768,)", 
        "__storage_type__": "0", 
        "__wd_mult__": "1.0"
      }, 
      "inputs": []
    }, 
    {
      "op": "FullyConnected", 
      "name": "bertencoder0_transformer2_proj_fwd", 
      "attrs": {
        "flatten": "False", 
        "no_bias": "False", 
        "num_hidden": "768"
      }, 
      "inputs": [[130, 0, 0], [131, 0, 0], [132, 0, 0]]
    }, 
    {
      "op": "Dropout", 
      "name": "bertencoder0_transformer2_dropout0_fwd", 
      "attrs": {
        "axes": "()", 
        "cudnn_off": "False", 
        "p": "0.1"
      }, 
      "inputs": [[133, 0, 0]]
    }, 
    {
      "op": "elemwise_add", 
      "name": "bertencoder0_transformer2__plus0", 
      "inputs": [[134, 0, 0], [106, 0, 0]]
    }, 
    {
      "op": "null", 
      "name": "bertencoder0_transformer2_layernorm0_gamma", 
      "attrs": {
        "__dtype__": "0", 
        "__init__": "ones", 
        "__lr_mult__": "1.0", 
        "__shape__": "(768,)", 
        "__storage_type__": "0", 
        "__wd_mult__": "1.0"
      }, 
      "inputs": []
    }, 
    {
      "op": "null", 
      "name": "bertencoder0_transformer2_layernorm0_beta", 
      "attrs": {
        "__dtype__": "0", 
        "__init__": "zeros", 
        "__lr_mult__": "1.0", 
        "__shape__": "(768,)", 
        "__storage_type__": "0", 
        "__wd_mult__": "1.0"
      }, 
      "inputs": []
    }, 
    {
      "op": "LayerNorm", 
      "name": "bertencoder0_transformer2_layernorm0_layernorm0", 
      "attrs": {
        "axis": "-1", 
        "eps": "1e-05"
      }, 
      "inputs": [[135, 0, 0], [136, 0, 0], [137, 0, 0]]
    }, 
    {
      "op": "null", 
      "name": "bertencoder0_transformer2_positionwiseffn0_ffn_1_weight", 
      "attrs": {
        "__dtype__": "0", 
        "__lr_mult__": "1.0", 
        "__shape__": "(3072, 768)", 
        "__storage_type__": "0", 
        "__wd_mult__": "1.0"
      }, 
      "inputs": []
    }, 
    {
      "op": "null", 
      "name": "bertencoder0_transformer2_positionwiseffn0_ffn_1_bias", 
      "attrs": {
        "__dtype__": "0", 
        "__init__": "zeros", 
        "__lr_mult__": "1.0", 
        "__shape__": "(3072,)", 
        "__storage_type__": "0", 
        "__wd_mult__": "1.0"
      }, 
      "inputs": []
    }, 
    {
      "op": "FullyConnected", 
      "name": "bertencoder0_transformer2_positionwiseffn0_ffn_1_fwd", 
      "attrs": {
        "flatten": "False", 
        "no_bias": "False", 
        "num_hidden": "3072"
      }, 
      "inputs": [[138, 0, 0], [139, 0, 0], [140, 0, 0]]
    }, 
    {
      "op": "LeakyReLU", 
      "name": "bertencoder0_transformer2_positionwiseffn0_gelu0_leakyrelu0", 
      "attrs": {"act_type": "gelu"}, 
      "inputs": [[141, 0, 0]]
    }, 
    {
      "op": "null", 
      "name": "bertencoder0_transformer2_positionwiseffn0_ffn_2_weight", 
      "attrs": {
        "__dtype__": "0", 
        "__lr_mult__": "1.0", 
        "__shape__": "(768, 3072)", 
        "__storage_type__": "0", 
        "__wd_mult__": "1.0"
      }, 
      "inputs": []
    }, 
    {
      "op": "null", 
      "name": "bertencoder0_transformer2_positionwiseffn0_ffn_2_bias", 
      "attrs": {
        "__dtype__": "0", 
        "__init__": "zeros", 
        "__lr_mult__": "1.0", 
        "__shape__": "(768,)", 
        "__storage_type__": "0", 
        "__wd_mult__": "1.0"
      }, 
      "inputs": []
    }, 
    {
      "op": "FullyConnected", 
      "name": "bertencoder0_transformer2_positionwiseffn0_ffn_2_fwd", 
      "attrs": {
        "flatten": "False", 
        "no_bias": "False", 
        "num_hidden": "768"
      }, 
      "inputs": [[142, 0, 0], [143, 0, 0], [144, 0, 0]]
    }, 
    {
      "op": "Dropout", 
      "name": "bertencoder0_transformer2_positionwiseffn0_dropout0_fwd", 
      "attrs": {
        "axes": "()", 
        "cudnn_off": "False", 
        "p": "0.1"
      }, 
      "inputs": [[145, 0, 0]]
    }, 
    {
      "op": "elemwise_add", 
      "name": "bertencoder0_transformer2_positionwiseffn0__plus0", 
      "inputs": [[146, 0, 0], [138, 0, 0]]
    }, 
    {
      "op": "null", 
      "name": "bertencoder0_transformer2_positionwiseffn0_layernorm0_gamma", 
      "attrs": {
        "__dtype__": "0", 
        "__init__": "ones", 
        "__lr_mult__": "1.0", 
        "__shape__": "(768,)", 
        "__storage_type__": "0", 
        "__wd_mult__": "1.0"
      }, 
      "inputs": []
    }, 
    {
      "op": "null", 
      "name": "bertencoder0_transformer2_positionwiseffn0_layernorm0_beta", 
      "attrs": {
        "__dtype__": "0", 
        "__init__": "zeros", 
        "__lr_mult__": "1.0", 
        "__shape__": "(768,)", 
        "__storage_type__": "0", 
        "__wd_mult__": "1.0"
      }, 
      "inputs": []
    }, 
    {
      "op": "LayerNorm", 
      "name": "bertencoder0_transformer2_positionwiseffn0_layernorm0_layernorm0", 
      "attrs": {
        "axis": "-1", 
        "eps": "1e-05"
      }, 
      "inputs": [[147, 0, 0], [148, 0, 0], [149, 0, 0]]
    }, 
    {
      "op": "null", 
      "name": "bertencoder0_transformer3_dotproductselfattentioncell0_query_weight", 
      "attrs": {
        "__dtype__": "0", 
        "__lr_mult__": "1.0", 
        "__shape__": "(768, 768)", 
        "__storage_type__": "0", 
        "__wd_mult__": "1.0"
      }, 
      "inputs": []
    }, 
    {
      "op": "Reshape", 
      "name": "bertencoder0_transformer3_dotproductselfattentioncell0_reshape0", 
      "attrs": {
        "reverse": "True", 
        "shape": "(12, -1, 0)"
      }, 
      "inputs": [[151, 0, 0]]
    }, 
    {
      "op": "null", 
      "name": "bertencoder0_transformer3_dotproductselfattentioncell0_key_weight", 
      "attrs": {
        "__dtype__": "0", 
        "__lr_mult__": "1.0", 
        "__shape__": "(768, 768)", 
        "__storage_type__": "0", 
        "__wd_mult__": "1.0"
      }, 
      "inputs": []
    }, 
    {
      "op": "Reshape", 
      "name": "bertencoder0_transformer3_dotproductselfattentioncell0_reshape1", 
      "attrs": {
        "reverse": "True", 
        "shape": "(12, -1, 0)"
      }, 
      "inputs": [[153, 0, 0]]
    }, 
    {
      "op": "null", 
      "name": "bertencoder0_transformer3_dotproductselfattentioncell0_value_weight", 
      "attrs": {
        "__dtype__": "0", 
        "__lr_mult__": "1.0", 
        "__shape__": "(768, 768)", 
        "__storage_type__": "0", 
        "__wd_mult__": "1.0"
      }, 
      "inputs": []
    }, 
    {
      "op": "Reshape", 
      "name": "bertencoder0_transformer3_dotproductselfattentioncell0_reshape2", 
      "attrs": {
        "reverse": "True", 
        "shape": "(12, -1, 0)"
      }, 
      "inputs": [[155, 0, 0]]
    }, 
    {
      "op": "Concat", 
      "name": "bertencoder0_transformer3_dotproductselfattentioncell0_concat0", 
      "attrs": {
        "dim": "-2", 
        "num_args": "3"
      }, 
      "inputs": [[152, 0, 0], [154, 0, 0], [156, 0, 0]]
    }, 
    {
      "op": "Reshape", 
      "name": "bertencoder0_transformer3_dotproductselfattentioncell0_reshape3", 
      "attrs": {
        "reverse": "True", 
        "shape": "(-1, 0)"
      }, 
      "inputs": [[157, 0, 0]]
    }, 
    {
      "op": "null", 
      "name": "bertencoder0_transformer3_dotproductselfattentioncell0_query_bias", 
      "attrs": {
        "__dtype__": "0", 
        "__init__": "zeros", 
        "__lr_mult__": "1.0", 
        "__shape__": "(768,)", 
        "__storage_type__": "0", 
        "__wd_mult__": "1.0"
      }, 
      "inputs": []
    }, 
    {
      "op": "Reshape", 
      "name": "bertencoder0_transformer3_dotproductselfattentioncell0_reshape4", 
      "attrs": {
        "reverse": "True", 
        "shape": "(12, -1)"
      }, 
      "inputs": [[159, 0, 0]]
    }, 
    {
      "op": "null", 
      "name": "bertencoder0_transformer3_dotproductselfattentioncell0_key_bias", 
      "attrs": {
        "__dtype__": "0", 
        "__init__": "zeros", 
        "__lr_mult__": "1.0", 
        "__shape__": "(768,)", 
        "__storage_type__": "0", 
        "__wd_mult__": "1.0"
      }, 
      "inputs": []
    }, 
    {
      "op": "Reshape", 
      "name": "bertencoder0_transformer3_dotproductselfattentioncell0_reshape5", 
      "attrs": {
        "reverse": "True", 
        "shape": "(12, -1)"
      }, 
      "inputs": [[161, 0, 0]]
    }, 
    {
      "op": "null", 
      "name": "bertencoder0_transformer3_dotproductselfattentioncell0_value_bias", 
      "attrs": {
        "__dtype__": "0", 
        "__init__": "zeros", 
        "__lr_mult__": "1.0", 
        "__shape__": "(768,)", 
        "__storage_type__": "0", 
        "__wd_mult__": "1.0"
      }, 
      "inputs": []
    }, 
    {
      "op": "Reshape", 
      "name": "bertencoder0_transformer3_dotproductselfattentioncell0_reshape6", 
      "attrs": {
        "reverse": "True", 
        "shape": "(12, -1)"
      }, 
      "inputs": [[163, 0, 0]]
    }, 
    {
      "op": "stack", 
      "name": "bertencoder0_transformer3_dotproductselfattentioncell0_stack0", 
      "attrs": {
        "axis": "1", 
        "num_args": "3"
      }, 
      "inputs": [[160, 0, 0], [162, 0, 0], [164, 0, 0]]
    }, 
    {
      "op": "Reshape", 
      "name": "bertencoder0_transformer3_dotproductselfattentioncell0_reshape7", 
      "attrs": {"shape": "-1"}, 
      "inputs": [[165, 0, 0]]
    }, 
    {
      "op": "FullyConnected", 
      "name": "bertencoder0_transformer3_dotproductselfattentioncell0_fullyconnected0", 
      "attrs": {
        "flatten": "False", 
        "no_bias": "False", 
        "num_hidden": "2304"
      }, 
      "inputs": [[150, 0, 0], [158, 0, 0], [166, 0, 0]]
    }, 
    {
      "op": "_contrib_interleaved_matmul_selfatt_qk", 
      "name": "bertencoder0_transformer3_dotproductselfattentioncell0_interleaved_matmul_selfatt_qk0", 
      "attrs": {"heads": "12"}, 
      "inputs": [[167, 0, 0]]
    }, 
    {
      "op": "expand_dims", 
      "name": "bertencoder0_transformer3_dotproductselfattentioncell0_expand_dims0", 
      "attrs": {"axis": "1"}, 
      "inputs": [[36, 0, 0]]
    }, 
    {
      "op": "broadcast_axis", 
      "name": "bertencoder0_transformer3_dotproductselfattentioncell0_broadcast_axis0", 
      "attrs": {
        "axis": "1", 
        "size": "12"
      }, 
      "inputs": [[169, 0, 0]]
    }, 
    {
      "op": "Reshape", 
      "name": "bertencoder0_transformer3_dotproductselfattentioncell0_reshape8", 
      "attrs": {
        "reverse": "True", 
        "shape": "(-1, 0)"
      }, 
      "inputs": [[170, 0, 0]]
    }, 
    {
      "op": "softmax", 
      "name": "bertencoder0_transformer3_dotproductselfattentioncell0_softmax0", 
      "attrs": {
        "axis": "-1", 
        "use_length": "True"
      }, 
      "inputs": [[168, 0, 0], [171, 0, 0]]
    }, 
    {
      "op": "Dropout", 
      "name": "bertencoder0_transformer3_dotproductselfattentioncell0_dropout0_fwd", 
      "attrs": {
        "axes": "()", 
        "cudnn_off": "False", 
        "p": "0.1"
      }, 
      "inputs": [[172, 0, 0]]
    }, 
    {
      "op": "_contrib_interleaved_matmul_selfatt_valatt", 
      "name": "bertencoder0_transformer3_dotproductselfattentioncell0_interleaved_matmul_selfatt_valatt0", 
      "attrs": {"heads": "12"}, 
      "inputs": [[167, 0, 0], [173, 0, 0]]
    }, 
    {
      "op": "null", 
      "name": "bertencoder0_transformer3_proj_weight", 
      "attrs": {
        "__dtype__": "0", 
        "__lr_mult__": "1.0", 
        "__shape__": "(768, 768)", 
        "__storage_type__": "0", 
        "__wd_mult__": "1.0"
      }, 
      "inputs": []
    }, 
    {
      "op": "null", 
      "name": "bertencoder0_transformer3_proj_bias", 
      "attrs": {
        "__dtype__": "0", 
        "__init__": "zeros", 
        "__lr_mult__": "1.0", 
        "__shape__": "(768,)", 
        "__storage_type__": "0", 
        "__wd_mult__": "1.0"
      }, 
      "inputs": []
    }, 
    {
      "op": "FullyConnected", 
      "name": "bertencoder0_transformer3_proj_fwd", 
      "attrs": {
        "flatten": "False", 
        "no_bias": "False", 
        "num_hidden": "768"
      }, 
      "inputs": [[174, 0, 0], [175, 0, 0], [176, 0, 0]]
    }, 
    {
      "op": "Dropout", 
      "name": "bertencoder0_transformer3_dropout0_fwd", 
      "attrs": {
        "axes": "()", 
        "cudnn_off": "False", 
        "p": "0.1"
      }, 
      "inputs": [[177, 0, 0]]
    }, 
    {
      "op": "elemwise_add", 
      "name": "bertencoder0_transformer3__plus0", 
      "inputs": [[178, 0, 0], [150, 0, 0]]
    }, 
    {
      "op": "null", 
      "name": "bertencoder0_transformer3_layernorm0_gamma", 
      "attrs": {
        "__dtype__": "0", 
        "__init__": "ones", 
        "__lr_mult__": "1.0", 
        "__shape__": "(768,)", 
        "__storage_type__": "0", 
        "__wd_mult__": "1.0"
      }, 
      "inputs": []
    }, 
    {
      "op": "null", 
      "name": "bertencoder0_transformer3_layernorm0_beta", 
      "attrs": {
        "__dtype__": "0", 
        "__init__": "zeros", 
        "__lr_mult__": "1.0", 
        "__shape__": "(768,)", 
        "__storage_type__": "0", 
        "__wd_mult__": "1.0"
      }, 
      "inputs": []
    }, 
    {
      "op": "LayerNorm", 
      "name": "bertencoder0_transformer3_layernorm0_layernorm0", 
      "attrs": {
        "axis": "-1", 
        "eps": "1e-05"
      }, 
      "inputs": [[179, 0, 0], [180, 0, 0], [181, 0, 0]]
    }, 
    {
      "op": "null", 
      "name": "bertencoder0_transformer3_positionwiseffn0_ffn_1_weight", 
      "attrs": {
        "__dtype__": "0", 
        "__lr_mult__": "1.0", 
        "__shape__": "(3072, 768)", 
        "__storage_type__": "0", 
        "__wd_mult__": "1.0"
      }, 
      "inputs": []
    }, 
    {
      "op": "null", 
      "name": "bertencoder0_transformer3_positionwiseffn0_ffn_1_bias", 
      "attrs": {
        "__dtype__": "0", 
        "__init__": "zeros", 
        "__lr_mult__": "1.0", 
        "__shape__": "(3072,)", 
        "__storage_type__": "0", 
        "__wd_mult__": "1.0"
      }, 
      "inputs": []
    }, 
    {
      "op": "FullyConnected", 
      "name": "bertencoder0_transformer3_positionwiseffn0_ffn_1_fwd", 
      "attrs": {
        "flatten": "False", 
        "no_bias": "False", 
        "num_hidden": "3072"
      }, 
      "inputs": [[182, 0, 0], [183, 0, 0], [184, 0, 0]]
    }, 
    {
      "op": "LeakyReLU", 
      "name": "bertencoder0_transformer3_positionwiseffn0_gelu0_leakyrelu0", 
      "attrs": {"act_type": "gelu"}, 
      "inputs": [[185, 0, 0]]
    }, 
    {
      "op": "null", 
      "name": "bertencoder0_transformer3_positionwiseffn0_ffn_2_weight", 
      "attrs": {
        "__dtype__": "0", 
        "__lr_mult__": "1.0", 
        "__shape__": "(768, 3072)", 
        "__storage_type__": "0", 
        "__wd_mult__": "1.0"
      }, 
      "inputs": []
    }, 
    {
      "op": "null", 
      "name": "bertencoder0_transformer3_positionwiseffn0_ffn_2_bias", 
      "attrs": {
        "__dtype__": "0", 
        "__init__": "zeros", 
        "__lr_mult__": "1.0", 
        "__shape__": "(768,)", 
        "__storage_type__": "0", 
        "__wd_mult__": "1.0"
      }, 
      "inputs": []
    }, 
    {
      "op": "FullyConnected", 
      "name": "bertencoder0_transformer3_positionwiseffn0_ffn_2_fwd", 
      "attrs": {
        "flatten": "False", 
        "no_bias": "False", 
        "num_hidden": "768"
      }, 
      "inputs": [[186, 0, 0], [187, 0, 0], [188, 0, 0]]
    }, 
    {
      "op": "Dropout", 
      "name": "bertencoder0_transformer3_positionwiseffn0_dropout0_fwd", 
      "attrs": {
        "axes": "()", 
        "cudnn_off": "False", 
        "p": "0.1"
      }, 
      "inputs": [[189, 0, 0]]
    }, 
    {
      "op": "elemwise_add", 
      "name": "bertencoder0_transformer3_positionwiseffn0__plus0", 
      "inputs": [[190, 0, 0], [182, 0, 0]]
    }, 
    {
      "op": "null", 
      "name": "bertencoder0_transformer3_positionwiseffn0_layernorm0_gamma", 
      "attrs": {
        "__dtype__": "0", 
        "__init__": "ones", 
        "__lr_mult__": "1.0", 
        "__shape__": "(768,)", 
        "__storage_type__": "0", 
        "__wd_mult__": "1.0"
      }, 
      "inputs": []
    }, 
    {
      "op": "null", 
      "name": "bertencoder0_transformer3_positionwiseffn0_layernorm0_beta", 
      "attrs": {
        "__dtype__": "0", 
        "__init__": "zeros", 
        "__lr_mult__": "1.0", 
        "__shape__": "(768,)", 
        "__storage_type__": "0", 
        "__wd_mult__": "1.0"
      }, 
      "inputs": []
    }, 
    {
      "op": "LayerNorm", 
      "name": "bertencoder0_transformer3_positionwiseffn0_layernorm0_layernorm0", 
      "attrs": {
        "axis": "-1", 
        "eps": "1e-05"
      }, 
      "inputs": [[191, 0, 0], [192, 0, 0], [193, 0, 0]]
    }, 
    {
      "op": "null", 
      "name": "bertencoder0_transformer4_dotproductselfattentioncell0_query_weight", 
      "attrs": {
        "__dtype__": "0", 
        "__lr_mult__": "1.0", 
        "__shape__": "(768, 768)", 
        "__storage_type__": "0", 
        "__wd_mult__": "1.0"
      }, 
      "inputs": []
    }, 
    {
      "op": "Reshape", 
      "name": "bertencoder0_transformer4_dotproductselfattentioncell0_reshape0", 
      "attrs": {
        "reverse": "True", 
        "shape": "(12, -1, 0)"
      }, 
      "inputs": [[195, 0, 0]]
    }, 
    {
      "op": "null", 
      "name": "bertencoder0_transformer4_dotproductselfattentioncell0_key_weight", 
      "attrs": {
        "__dtype__": "0", 
        "__lr_mult__": "1.0", 
        "__shape__": "(768, 768)", 
        "__storage_type__": "0", 
        "__wd_mult__": "1.0"
      }, 
      "inputs": []
    }, 
    {
      "op": "Reshape", 
      "name": "bertencoder0_transformer4_dotproductselfattentioncell0_reshape1", 
      "attrs": {
        "reverse": "True", 
        "shape": "(12, -1, 0)"
      }, 
      "inputs": [[197, 0, 0]]
    }, 
    {
      "op": "null", 
      "name": "bertencoder0_transformer4_dotproductselfattentioncell0_value_weight", 
      "attrs": {
        "__dtype__": "0", 
        "__lr_mult__": "1.0", 
        "__shape__": "(768, 768)", 
        "__storage_type__": "0", 
        "__wd_mult__": "1.0"
      }, 
      "inputs": []
    }, 
    {
      "op": "Reshape", 
      "name": "bertencoder0_transformer4_dotproductselfattentioncell0_reshape2", 
      "attrs": {
        "reverse": "True", 
        "shape": "(12, -1, 0)"
      }, 
      "inputs": [[199, 0, 0]]
    }, 
    {
      "op": "Concat", 
      "name": "bertencoder0_transformer4_dotproductselfattentioncell0_concat0", 
      "attrs": {
        "dim": "-2", 
        "num_args": "3"
      }, 
      "inputs": [[196, 0, 0], [198, 0, 0], [200, 0, 0]]
    }, 
    {
      "op": "Reshape", 
      "name": "bertencoder0_transformer4_dotproductselfattentioncell0_reshape3", 
      "attrs": {
        "reverse": "True", 
        "shape": "(-1, 0)"
      }, 
      "inputs": [[201, 0, 0]]
    }, 
    {
      "op": "null", 
      "name": "bertencoder0_transformer4_dotproductselfattentioncell0_query_bias", 
      "attrs": {
        "__dtype__": "0", 
        "__init__": "zeros", 
        "__lr_mult__": "1.0", 
        "__shape__": "(768,)", 
        "__storage_type__": "0", 
        "__wd_mult__": "1.0"
      }, 
      "inputs": []
    }, 
    {
      "op": "Reshape", 
      "name": "bertencoder0_transformer4_dotproductselfattentioncell0_reshape4", 
      "attrs": {
        "reverse": "True", 
        "shape": "(12, -1)"
      }, 
      "inputs": [[203, 0, 0]]
    }, 
    {
      "op": "null", 
      "name": "bertencoder0_transformer4_dotproductselfattentioncell0_key_bias", 
      "attrs": {
        "__dtype__": "0", 
        "__init__": "zeros", 
        "__lr_mult__": "1.0", 
        "__shape__": "(768,)", 
        "__storage_type__": "0", 
        "__wd_mult__": "1.0"
      }, 
      "inputs": []
    }, 
    {
      "op": "Reshape", 
      "name": "bertencoder0_transformer4_dotproductselfattentioncell0_reshape5", 
      "attrs": {
        "reverse": "True", 
        "shape": "(12, -1)"
      }, 
      "inputs": [[205, 0, 0]]
    }, 
    {
      "op": "null", 
      "name": "bertencoder0_transformer4_dotproductselfattentioncell0_value_bias", 
      "attrs": {
        "__dtype__": "0", 
        "__init__": "zeros", 
        "__lr_mult__": "1.0", 
        "__shape__": "(768,)", 
        "__storage_type__": "0", 
        "__wd_mult__": "1.0"
      }, 
      "inputs": []
    }, 
    {
      "op": "Reshape", 
      "name": "bertencoder0_transformer4_dotproductselfattentioncell0_reshape6", 
      "attrs": {
        "reverse": "True", 
        "shape": "(12, -1)"
      }, 
      "inputs": [[207, 0, 0]]
    }, 
    {
      "op": "stack", 
      "name": "bertencoder0_transformer4_dotproductselfattentioncell0_stack0", 
      "attrs": {
        "axis": "1", 
        "num_args": "3"
      }, 
      "inputs": [[204, 0, 0], [206, 0, 0], [208, 0, 0]]
    }, 
    {
      "op": "Reshape", 
      "name": "bertencoder0_transformer4_dotproductselfattentioncell0_reshape7", 
      "attrs": {"shape": "-1"}, 
      "inputs": [[209, 0, 0]]
    }, 
    {
      "op": "FullyConnected", 
      "name": "bertencoder0_transformer4_dotproductselfattentioncell0_fullyconnected0", 
      "attrs": {
        "flatten": "False", 
        "no_bias": "False", 
        "num_hidden": "2304"
      }, 
      "inputs": [[194, 0, 0], [202, 0, 0], [210, 0, 0]]
    }, 
    {
      "op": "_contrib_interleaved_matmul_selfatt_qk", 
      "name": "bertencoder0_transformer4_dotproductselfattentioncell0_interleaved_matmul_selfatt_qk0", 
      "attrs": {"heads": "12"}, 
      "inputs": [[211, 0, 0]]
    }, 
    {
      "op": "expand_dims", 
      "name": "bertencoder0_transformer4_dotproductselfattentioncell0_expand_dims0", 
      "attrs": {"axis": "1"}, 
      "inputs": [[36, 0, 0]]
    }, 
    {
      "op": "broadcast_axis", 
      "name": "bertencoder0_transformer4_dotproductselfattentioncell0_broadcast_axis0", 
      "attrs": {
        "axis": "1", 
        "size": "12"
      }, 
      "inputs": [[213, 0, 0]]
    }, 
    {
      "op": "Reshape", 
      "name": "bertencoder0_transformer4_dotproductselfattentioncell0_reshape8", 
      "attrs": {
        "reverse": "True", 
        "shape": "(-1, 0)"
      }, 
      "inputs": [[214, 0, 0]]
    }, 
    {
      "op": "softmax", 
      "name": "bertencoder0_transformer4_dotproductselfattentioncell0_softmax0", 
      "attrs": {
        "axis": "-1", 
        "use_length": "True"
      }, 
      "inputs": [[212, 0, 0], [215, 0, 0]]
    }, 
    {
      "op": "Dropout", 
      "name": "bertencoder0_transformer4_dotproductselfattentioncell0_dropout0_fwd", 
      "attrs": {
        "axes": "()", 
        "cudnn_off": "False", 
        "p": "0.1"
      }, 
      "inputs": [[216, 0, 0]]
    }, 
    {
      "op": "_contrib_interleaved_matmul_selfatt_valatt", 
      "name": "bertencoder0_transformer4_dotproductselfattentioncell0_interleaved_matmul_selfatt_valatt0", 
      "attrs": {"heads": "12"}, 
      "inputs": [[211, 0, 0], [217, 0, 0]]
    }, 
    {
      "op": "null", 
      "name": "bertencoder0_transformer4_proj_weight", 
      "attrs": {
        "__dtype__": "0", 
        "__lr_mult__": "1.0", 
        "__shape__": "(768, 768)", 
        "__storage_type__": "0", 
        "__wd_mult__": "1.0"
      }, 
      "inputs": []
    }, 
    {
      "op": "null", 
      "name": "bertencoder0_transformer4_proj_bias", 
      "attrs": {
        "__dtype__": "0", 
        "__init__": "zeros", 
        "__lr_mult__": "1.0", 
        "__shape__": "(768,)", 
        "__storage_type__": "0", 
        "__wd_mult__": "1.0"
      }, 
      "inputs": []
    }, 
    {
      "op": "FullyConnected", 
      "name": "bertencoder0_transformer4_proj_fwd", 
      "attrs": {
        "flatten": "False", 
        "no_bias": "False", 
        "num_hidden": "768"
      }, 
      "inputs": [[218, 0, 0], [219, 0, 0], [220, 0, 0]]
    }, 
    {
      "op": "Dropout", 
      "name": "bertencoder0_transformer4_dropout0_fwd", 
      "attrs": {
        "axes": "()", 
        "cudnn_off": "False", 
        "p": "0.1"
      }, 
      "inputs": [[221, 0, 0]]
    }, 
    {
      "op": "elemwise_add", 
      "name": "bertencoder0_transformer4__plus0", 
      "inputs": [[222, 0, 0], [194, 0, 0]]
    }, 
    {
      "op": "null", 
      "name": "bertencoder0_transformer4_layernorm0_gamma", 
      "attrs": {
        "__dtype__": "0", 
        "__init__": "ones", 
        "__lr_mult__": "1.0", 
        "__shape__": "(768,)", 
        "__storage_type__": "0", 
        "__wd_mult__": "1.0"
      }, 
      "inputs": []
    }, 
    {
      "op": "null", 
      "name": "bertencoder0_transformer4_layernorm0_beta", 
      "attrs": {
        "__dtype__": "0", 
        "__init__": "zeros", 
        "__lr_mult__": "1.0", 
        "__shape__": "(768,)", 
        "__storage_type__": "0", 
        "__wd_mult__": "1.0"
      }, 
      "inputs": []
    }, 
    {
      "op": "LayerNorm", 
      "name": "bertencoder0_transformer4_layernorm0_layernorm0", 
      "attrs": {
        "axis": "-1", 
        "eps": "1e-05"
      }, 
      "inputs": [[223, 0, 0], [224, 0, 0], [225, 0, 0]]
    }, 
    {
      "op": "null", 
      "name": "bertencoder0_transformer4_positionwiseffn0_ffn_1_weight", 
      "attrs": {
        "__dtype__": "0", 
        "__lr_mult__": "1.0", 
        "__shape__": "(3072, 768)", 
        "__storage_type__": "0", 
        "__wd_mult__": "1.0"
      }, 
      "inputs": []
    }, 
    {
      "op": "null", 
      "name": "bertencoder0_transformer4_positionwiseffn0_ffn_1_bias", 
      "attrs": {
        "__dtype__": "0", 
        "__init__": "zeros", 
        "__lr_mult__": "1.0", 
        "__shape__": "(3072,)", 
        "__storage_type__": "0", 
        "__wd_mult__": "1.0"
      }, 
      "inputs": []
    }, 
    {
      "op": "FullyConnected", 
      "name": "bertencoder0_transformer4_positionwiseffn0_ffn_1_fwd", 
      "attrs": {
        "flatten": "False", 
        "no_bias": "False", 
        "num_hidden": "3072"
      }, 
      "inputs": [[226, 0, 0], [227, 0, 0], [228, 0, 0]]
    }, 
    {
      "op": "LeakyReLU", 
      "name": "bertencoder0_transformer4_positionwiseffn0_gelu0_leakyrelu0", 
      "attrs": {"act_type": "gelu"}, 
      "inputs": [[229, 0, 0]]
    }, 
    {
      "op": "null", 
      "name": "bertencoder0_transformer4_positionwiseffn0_ffn_2_weight", 
      "attrs": {
        "__dtype__": "0", 
        "__lr_mult__": "1.0", 
        "__shape__": "(768, 3072)", 
        "__storage_type__": "0", 
        "__wd_mult__": "1.0"
      }, 
      "inputs": []
    }, 
    {
      "op": "null", 
      "name": "bertencoder0_transformer4_positionwiseffn0_ffn_2_bias", 
      "attrs": {
        "__dtype__": "0", 
        "__init__": "zeros", 
        "__lr_mult__": "1.0", 
        "__shape__": "(768,)", 
        "__storage_type__": "0", 
        "__wd_mult__": "1.0"
      }, 
      "inputs": []
    }, 
    {
      "op": "FullyConnected", 
      "name": "bertencoder0_transformer4_positionwiseffn0_ffn_2_fwd", 
      "attrs": {
        "flatten": "False", 
        "no_bias": "False", 
        "num_hidden": "768"
      }, 
      "inputs": [[230, 0, 0], [231, 0, 0], [232, 0, 0]]
    }, 
    {
      "op": "Dropout", 
      "name": "bertencoder0_transformer4_positionwiseffn0_dropout0_fwd", 
      "attrs": {
        "axes": "()", 
        "cudnn_off": "False", 
        "p": "0.1"
      }, 
      "inputs": [[233, 0, 0]]
    }, 
    {
      "op": "elemwise_add", 
      "name": "bertencoder0_transformer4_positionwiseffn0__plus0", 
      "inputs": [[234, 0, 0], [226, 0, 0]]
    }, 
    {
      "op": "null", 
      "name": "bertencoder0_transformer4_positionwiseffn0_layernorm0_gamma", 
      "attrs": {
        "__dtype__": "0", 
        "__init__": "ones", 
        "__lr_mult__": "1.0", 
        "__shape__": "(768,)", 
        "__storage_type__": "0", 
        "__wd_mult__": "1.0"
      }, 
      "inputs": []
    }, 
    {
      "op": "null", 
      "name": "bertencoder0_transformer4_positionwiseffn0_layernorm0_beta", 
      "attrs": {
        "__dtype__": "0", 
        "__init__": "zeros", 
        "__lr_mult__": "1.0", 
        "__shape__": "(768,)", 
        "__storage_type__": "0", 
        "__wd_mult__": "1.0"
      }, 
      "inputs": []
    }, 
    {
      "op": "LayerNorm", 
      "name": "bertencoder0_transformer4_positionwiseffn0_layernorm0_layernorm0", 
      "attrs": {
        "axis": "-1", 
        "eps": "1e-05"
      }, 
      "inputs": [[235, 0, 0], [236, 0, 0], [237, 0, 0]]
    }, 
    {
      "op": "null", 
      "name": "bertencoder0_transformer5_dotproductselfattentioncell0_query_weight", 
      "attrs": {
        "__dtype__": "0", 
        "__lr_mult__": "1.0", 
        "__shape__": "(768, 768)", 
        "__storage_type__": "0", 
        "__wd_mult__": "1.0"
      }, 
      "inputs": []
    }, 
    {
      "op": "Reshape", 
      "name": "bertencoder0_transformer5_dotproductselfattentioncell0_reshape0", 
      "attrs": {
        "reverse": "True", 
        "shape": "(12, -1, 0)"
      }, 
      "inputs": [[239, 0, 0]]
    }, 
    {
      "op": "null", 
      "name": "bertencoder0_transformer5_dotproductselfattentioncell0_key_weight", 
      "attrs": {
        "__dtype__": "0", 
        "__lr_mult__": "1.0", 
        "__shape__": "(768, 768)", 
        "__storage_type__": "0", 
        "__wd_mult__": "1.0"
      }, 
      "inputs": []
    }, 
    {
      "op": "Reshape", 
      "name": "bertencoder0_transformer5_dotproductselfattentioncell0_reshape1", 
      "attrs": {
        "reverse": "True", 
        "shape": "(12, -1, 0)"
      }, 
      "inputs": [[241, 0, 0]]
    }, 
    {
      "op": "null", 
      "name": "bertencoder0_transformer5_dotproductselfattentioncell0_value_weight", 
      "attrs": {
        "__dtype__": "0", 
        "__lr_mult__": "1.0", 
        "__shape__": "(768, 768)", 
        "__storage_type__": "0", 
        "__wd_mult__": "1.0"
      }, 
      "inputs": []
    }, 
    {
      "op": "Reshape", 
      "name": "bertencoder0_transformer5_dotproductselfattentioncell0_reshape2", 
      "attrs": {
        "reverse": "True", 
        "shape": "(12, -1, 0)"
      }, 
      "inputs": [[243, 0, 0]]
    }, 
    {
      "op": "Concat", 
      "name": "bertencoder0_transformer5_dotproductselfattentioncell0_concat0", 
      "attrs": {
        "dim": "-2", 
        "num_args": "3"
      }, 
      "inputs": [[240, 0, 0], [242, 0, 0], [244, 0, 0]]
    }, 
    {
      "op": "Reshape", 
      "name": "bertencoder0_transformer5_dotproductselfattentioncell0_reshape3", 
      "attrs": {
        "reverse": "True", 
        "shape": "(-1, 0)"
      }, 
      "inputs": [[245, 0, 0]]
    }, 
    {
      "op": "null", 
      "name": "bertencoder0_transformer5_dotproductselfattentioncell0_query_bias", 
      "attrs": {
        "__dtype__": "0", 
        "__init__": "zeros", 
        "__lr_mult__": "1.0", 
        "__shape__": "(768,)", 
        "__storage_type__": "0", 
        "__wd_mult__": "1.0"
      }, 
      "inputs": []
    }, 
    {
      "op": "Reshape", 
      "name": "bertencoder0_transformer5_dotproductselfattentioncell0_reshape4", 
      "attrs": {
        "reverse": "True", 
        "shape": "(12, -1)"
      }, 
      "inputs": [[247, 0, 0]]
    }, 
    {
      "op": "null", 
      "name": "bertencoder0_transformer5_dotproductselfattentioncell0_key_bias", 
      "attrs": {
        "__dtype__": "0", 
        "__init__": "zeros", 
        "__lr_mult__": "1.0", 
        "__shape__": "(768,)", 
        "__storage_type__": "0", 
        "__wd_mult__": "1.0"
      }, 
      "inputs": []
    }, 
    {
      "op": "Reshape", 
      "name": "bertencoder0_transformer5_dotproductselfattentioncell0_reshape5", 
      "attrs": {
        "reverse": "True", 
        "shape": "(12, -1)"
      }, 
      "inputs": [[249, 0, 0]]
    }, 
    {
      "op": "null", 
      "name": "bertencoder0_transformer5_dotproductselfattentioncell0_value_bias", 
      "attrs": {
        "__dtype__": "0", 
        "__init__": "zeros", 
        "__lr_mult__": "1.0", 
        "__shape__": "(768,)", 
        "__storage_type__": "0", 
        "__wd_mult__": "1.0"
      }, 
      "inputs": []
    }, 
    {
      "op": "Reshape", 
      "name": "bertencoder0_transformer5_dotproductselfattentioncell0_reshape6", 
      "attrs": {
        "reverse": "True", 
        "shape": "(12, -1)"
      }, 
      "inputs": [[251, 0, 0]]
    }, 
    {
      "op": "stack", 
      "name": "bertencoder0_transformer5_dotproductselfattentioncell0_stack0", 
      "attrs": {
        "axis": "1", 
        "num_args": "3"
      }, 
      "inputs": [[248, 0, 0], [250, 0, 0], [252, 0, 0]]
    }, 
    {
      "op": "Reshape", 
      "name": "bertencoder0_transformer5_dotproductselfattentioncell0_reshape7", 
      "attrs": {"shape": "-1"}, 
      "inputs": [[253, 0, 0]]
    }, 
    {
      "op": "FullyConnected", 
      "name": "bertencoder0_transformer5_dotproductselfattentioncell0_fullyconnected0", 
      "attrs": {
        "flatten": "False", 
        "no_bias": "False", 
        "num_hidden": "2304"
      }, 
      "inputs": [[238, 0, 0], [246, 0, 0], [254, 0, 0]]
    }, 
    {
      "op": "_contrib_interleaved_matmul_selfatt_qk", 
      "name": "bertencoder0_transformer5_dotproductselfattentioncell0_interleaved_matmul_selfatt_qk0", 
      "attrs": {"heads": "12"}, 
      "inputs": [[255, 0, 0]]
    }, 
    {
      "op": "expand_dims", 
      "name": "bertencoder0_transformer5_dotproductselfattentioncell0_expand_dims0", 
      "attrs": {"axis": "1"}, 
      "inputs": [[36, 0, 0]]
    }, 
    {
      "op": "broadcast_axis", 
      "name": "bertencoder0_transformer5_dotproductselfattentioncell0_broadcast_axis0", 
      "attrs": {
        "axis": "1", 
        "size": "12"
      }, 
      "inputs": [[257, 0, 0]]
    }, 
    {
      "op": "Reshape", 
      "name": "bertencoder0_transformer5_dotproductselfattentioncell0_reshape8", 
      "attrs": {
        "reverse": "True", 
        "shape": "(-1, 0)"
      }, 
      "inputs": [[258, 0, 0]]
    }, 
    {
      "op": "softmax", 
      "name": "bertencoder0_transformer5_dotproductselfattentioncell0_softmax0", 
      "attrs": {
        "axis": "-1", 
        "use_length": "True"
      }, 
      "inputs": [[256, 0, 0], [259, 0, 0]]
    }, 
    {
      "op": "Dropout", 
      "name": "bertencoder0_transformer5_dotproductselfattentioncell0_dropout0_fwd", 
      "attrs": {
        "axes": "()", 
        "cudnn_off": "False", 
        "p": "0.1"
      }, 
      "inputs": [[260, 0, 0]]
    }, 
    {
      "op": "_contrib_interleaved_matmul_selfatt_valatt", 
      "name": "bertencoder0_transformer5_dotproductselfattentioncell0_interleaved_matmul_selfatt_valatt0", 
      "attrs": {"heads": "12"}, 
      "inputs": [[255, 0, 0], [261, 0, 0]]
    }, 
    {
      "op": "null", 
      "name": "bertencoder0_transformer5_proj_weight", 
      "attrs": {
        "__dtype__": "0", 
        "__lr_mult__": "1.0", 
        "__shape__": "(768, 768)", 
        "__storage_type__": "0", 
        "__wd_mult__": "1.0"
      }, 
      "inputs": []
    }, 
    {
      "op": "null", 
      "name": "bertencoder0_transformer5_proj_bias", 
      "attrs": {
        "__dtype__": "0", 
        "__init__": "zeros", 
        "__lr_mult__": "1.0", 
        "__shape__": "(768,)", 
        "__storage_type__": "0", 
        "__wd_mult__": "1.0"
      }, 
      "inputs": []
    }, 
    {
      "op": "FullyConnected", 
      "name": "bertencoder0_transformer5_proj_fwd", 
      "attrs": {
        "flatten": "False", 
        "no_bias": "False", 
        "num_hidden": "768"
      }, 
      "inputs": [[262, 0, 0], [263, 0, 0], [264, 0, 0]]
    }, 
    {
      "op": "Dropout", 
      "name": "bertencoder0_transformer5_dropout0_fwd", 
      "attrs": {
        "axes": "()", 
        "cudnn_off": "False", 
        "p": "0.1"
      }, 
      "inputs": [[265, 0, 0]]
    }, 
    {
      "op": "elemwise_add", 
      "name": "bertencoder0_transformer5__plus0", 
      "inputs": [[266, 0, 0], [238, 0, 0]]
    }, 
    {
      "op": "null", 
      "name": "bertencoder0_transformer5_layernorm0_gamma", 
      "attrs": {
        "__dtype__": "0", 
        "__init__": "ones", 
        "__lr_mult__": "1.0", 
        "__shape__": "(768,)", 
        "__storage_type__": "0", 
        "__wd_mult__": "1.0"
      }, 
      "inputs": []
    }, 
    {
      "op": "null", 
      "name": "bertencoder0_transformer5_layernorm0_beta", 
      "attrs": {
        "__dtype__": "0", 
        "__init__": "zeros", 
        "__lr_mult__": "1.0", 
        "__shape__": "(768,)", 
        "__storage_type__": "0", 
        "__wd_mult__": "1.0"
      }, 
      "inputs": []
    }, 
    {
      "op": "LayerNorm", 
      "name": "bertencoder0_transformer5_layernorm0_layernorm0", 
      "attrs": {
        "axis": "-1", 
        "eps": "1e-05"
      }, 
      "inputs": [[267, 0, 0], [268, 0, 0], [269, 0, 0]]
    }, 
    {
      "op": "null", 
      "name": "bertencoder0_transformer5_positionwiseffn0_ffn_1_weight", 
      "attrs": {
        "__dtype__": "0", 
        "__lr_mult__": "1.0", 
        "__shape__": "(3072, 768)", 
        "__storage_type__": "0", 
        "__wd_mult__": "1.0"
      }, 
      "inputs": []
    }, 
    {
      "op": "null", 
      "name": "bertencoder0_transformer5_positionwiseffn0_ffn_1_bias", 
      "attrs": {
        "__dtype__": "0", 
        "__init__": "zeros", 
        "__lr_mult__": "1.0", 
        "__shape__": "(3072,)", 
        "__storage_type__": "0", 
        "__wd_mult__": "1.0"
      }, 
      "inputs": []
    }, 
    {
      "op": "FullyConnected", 
      "name": "bertencoder0_transformer5_positionwiseffn0_ffn_1_fwd", 
      "attrs": {
        "flatten": "False", 
        "no_bias": "False", 
        "num_hidden": "3072"
      }, 
      "inputs": [[270, 0, 0], [271, 0, 0], [272, 0, 0]]
    }, 
    {
      "op": "LeakyReLU", 
      "name": "bertencoder0_transformer5_positionwiseffn0_gelu0_leakyrelu0", 
      "attrs": {"act_type": "gelu"}, 
      "inputs": [[273, 0, 0]]
    }, 
    {
      "op": "null", 
      "name": "bertencoder0_transformer5_positionwiseffn0_ffn_2_weight", 
      "attrs": {
        "__dtype__": "0", 
        "__lr_mult__": "1.0", 
        "__shape__": "(768, 3072)", 
        "__storage_type__": "0", 
        "__wd_mult__": "1.0"
      }, 
      "inputs": []
    }, 
    {
      "op": "null", 
      "name": "bertencoder0_transformer5_positionwiseffn0_ffn_2_bias", 
      "attrs": {
        "__dtype__": "0", 
        "__init__": "zeros", 
        "__lr_mult__": "1.0", 
        "__shape__": "(768,)", 
        "__storage_type__": "0", 
        "__wd_mult__": "1.0"
      }, 
      "inputs": []
    }, 
    {
      "op": "FullyConnected", 
      "name": "bertencoder0_transformer5_positionwiseffn0_ffn_2_fwd", 
      "attrs": {
        "flatten": "False", 
        "no_bias": "False", 
        "num_hidden": "768"
      }, 
      "inputs": [[274, 0, 0], [275, 0, 0], [276, 0, 0]]
    }, 
    {
      "op": "Dropout", 
      "name": "bertencoder0_transformer5_positionwiseffn0_dropout0_fwd", 
      "attrs": {
        "axes": "()", 
        "cudnn_off": "False", 
        "p": "0.1"
      }, 
      "inputs": [[277, 0, 0]]
    }, 
    {
      "op": "elemwise_add", 
      "name": "bertencoder0_transformer5_positionwiseffn0__plus0", 
      "inputs": [[278, 0, 0], [270, 0, 0]]
    }, 
    {
      "op": "null", 
      "name": "bertencoder0_transformer5_positionwiseffn0_layernorm0_gamma", 
      "attrs": {
        "__dtype__": "0", 
        "__init__": "ones", 
        "__lr_mult__": "1.0", 
        "__shape__": "(768,)", 
        "__storage_type__": "0", 
        "__wd_mult__": "1.0"
      }, 
      "inputs": []
    }, 
    {
      "op": "null", 
      "name": "bertencoder0_transformer5_positionwiseffn0_layernorm0_beta", 
      "attrs": {
        "__dtype__": "0", 
        "__init__": "zeros", 
        "__lr_mult__": "1.0", 
        "__shape__": "(768,)", 
        "__storage_type__": "0", 
        "__wd_mult__": "1.0"
      }, 
      "inputs": []
    }, 
    {
      "op": "LayerNorm", 
      "name": "bertencoder0_transformer5_positionwiseffn0_layernorm0_layernorm0", 
      "attrs": {
        "axis": "-1", 
        "eps": "1e-05"
      }, 
      "inputs": [[279, 0, 0], [280, 0, 0], [281, 0, 0]]
    }, 
    {
      "op": "SequenceMask", 
      "name": "bertencoder0_sequencemask0", 
      "attrs": {
        "axis": "0", 
        "use_sequence_length": "True"
      }, 
      "inputs": [[282, 0, 0], [31, 0, 0]]
    }, 
    {
      "op": "transpose", 
      "name": "distilbertmodel0_transpose1", 
      "attrs": {"axes": "(1, 0, 2)"}, 
      "inputs": [[283, 0, 0]]
    }
  ], 
  "arg_nodes": [
    0, 
    1, 
    5, 
    10, 
    11, 
    13, 
    15, 
    17, 
    21, 
    23, 
    25, 
    31, 
    43, 
    44, 
    48, 
    49, 
    51, 
    52, 
    55, 
    56, 
    60, 
    61, 
    63, 
    65, 
    67, 
    71, 
    73, 
    75, 
    87, 
    88, 
    92, 
    93, 
    95, 
    96, 
    99, 
    100, 
    104, 
    105, 
    107, 
    109, 
    111, 
    115, 
    117, 
    119, 
    131, 
    132, 
    136, 
    137, 
    139, 
    140, 
    143, 
    144, 
    148, 
    149, 
    151, 
    153, 
    155, 
    159, 
    161, 
    163, 
    175, 
    176, 
    180, 
    181, 
    183, 
    184, 
    187, 
    188, 
    192, 
    193, 
    195, 
    197, 
    199, 
    203, 
    205, 
    207, 
    219, 
    220, 
    224, 
    225, 
    227, 
    228, 
    231, 
    232, 
    236, 
    237, 
    239, 
    241, 
    243, 
    247, 
    249, 
    251, 
    263, 
    264, 
    268, 
    269, 
    271, 
    272, 
    275, 
    276, 
    280, 
    281
  ], 
  "node_row_ptr": [
    0, 
    1, 
    2, 
    3, 
    4, 
    5, 
    6, 
    7, 
    8, 
    9, 
    11, 
    12, 
    13, 
    16, 
    17, 
    18, 
    19, 
    20, 
    21, 
    22, 
    23, 
    24, 
    25, 
    26, 
    27, 
    28, 
    29, 
    30, 
    31, 
    32, 
    33, 
    34, 
    35, 
    36, 
    37, 
    38, 
    39, 
    40, 
    41, 
    42, 
    43, 
    44, 
    46, 
    47, 
    48, 
    49, 
    50, 
    52, 
    53, 
    54, 
    55, 
    58, 
    59, 
    60, 
    61, 
    62, 
    63, 
    64, 
    65, 
    67, 
    68, 
    69, 
    70, 
    73, 
    74, 
    75, 
    76, 
    77, 
    78, 
    79, 
    80, 
    81, 
    82, 
    83, 
    84, 
    85, 
    86, 
    87, 
    88, 
    89, 
    90, 
    91, 
    92, 
    93, 
    94, 
    95, 
    97, 
    98, 
    99, 
    100, 
    101, 
    103, 
    104, 
    105, 
    106, 
    109, 
    110, 
    111, 
    112, 
    113, 
    114, 
    115, 
    116, 
    118, 
    119, 
    120, 
    121, 
    124, 
    125, 
    126, 
    127, 
    128, 
    129, 
    130, 
    131, 
    132, 
    133, 
    134, 
    135, 
    136, 
    137, 
    138, 
    139, 
    140, 
    141, 
    142, 
    143, 
    144, 
    145, 
    146, 
    148, 
    149, 
    150, 
    151, 
    152, 
    154, 
    155, 
    156, 
    157, 
    160, 
    161, 
    162, 
    163, 
    164, 
    165, 
    166, 
    167, 
    169, 
    170, 
    171, 
    172, 
    175, 
    176, 
    177, 
    178, 
    179, 
    180, 
    181, 
    182, 
    183, 
    184, 
    185, 
    186, 
    187, 
    188, 
    189, 
    190, 
    191, 
    192, 
    193, 
    194, 
    195, 
    196, 
    197, 
    199, 
    200, 
    201, 
    202, 
    203, 
    205, 
    206, 
    207, 
    208, 
    211, 
    212, 
    213, 
    214, 
    215, 
    216, 
    217, 
    218, 
    220, 
    221, 
    222, 
    223, 
    226, 
    227, 
    228, 
    229, 
    230, 
    231, 
    232, 
    233, 
    234, 
    235, 
    236, 
    237, 
    238, 
    239, 
    240, 
    241, 
    242, 
    243, 
    244, 
    245, 
    246, 
    247, 
    248, 
    250, 
    251, 
    252, 
    253, 
    254, 
    256, 
    257, 
    258, 
    259, 
    262, 
    263, 
    264, 
    265, 
    266, 
    267, 
    268, 
    269, 
    271, 
    272, 
    273, 
    274, 
    277, 
    278, 
    279, 
    280, 
    281, 
    282, 
    283, 
    284, 
    285, 
    286, 
    287, 
    288, 
    289, 
    290, 
    291, 
    292, 
    293, 
    294, 
    295, 
    296, 
    297, 
    298, 
    299, 
    301, 
    302, 
    303, 
    304, 
    305, 
    307, 
    308, 
    309, 
    310, 
    313, 
    314, 
    315, 
    316, 
    317, 
    318, 
    319, 
    320, 
    322, 
    323, 
    324, 
    325, 
    328, 
    329, 
    330
  ], 
  "heads": [[284, 0, 0]], 
  "attrs": {"mxnet_version": ["int", 10700]}
}